Proyecto/me_15_freno_motor/modelo_optimizadotl_v15.tflite (tflite, 46828 bytes, 6 tensors)

arith.constant f4 [28, 32]
000000 3a 4f e0 3f d2 cc f1 bf a8 08 a0 3f ac db 0a 40
       1.7524178 -1.8890631 1.2502642 2.1696577
000010 96 be f0 bf 42 cd 06 c0 7f 80 9b 3f 5b 1d 8f 3f
       -1.8808162 -2.106278 1.2148589 1.1180834
000020 17 c7 07 40 26 77 23 3e e1 b2 a5 bf a5 81 37 bf
       2.1215265 0.1596342 -1.2945215 -0.71682197
000030 5d 53 19 40 dd 70 1d c0 bd 63 80 c0 c4 53 a0 bf
       2.395713 -2.4600136 -4.012175 -1.2525563
000040 a4 12 1b c0 c6 66 14 40 68 c4 22 c0 77 3b d2 bf
       -2.4230127 2.3187728 -2.5432377 -1.6424397
000050 5c c1 a6 bf 9c 75 fa bf d7 f3 90 bf 0c a3 89 3f
       -1.3027759 -1.9567142 -1.1324414 1.0752883
000060 f3 f5 c0 3f 12 fa f8 bf cb 38 1f 3f 37 4c dd bf
       1.5075058 -1.9451315 0.62196034 -1.7288884
000070 6b be 03 c0 ac 2e a3 3f 77 ea c2 bf f4 37 4d 40
       -2.0584972 1.2748618 -1.5227803 3.20654
000080 34 ae cb bf e4 30 30 c0 06 9f e9 bf 51 e0 eb 3f
       -1.5912538 -2.752984 -1.8251655 1.8427831
000090 13 d7 d6 bf 39 e8 3b be de dc 33 c0 e1 5c bc bf
       -1.6784385 -0.18350305 -2.8103557 -1.4715844
0000a0 44 f4 19 c0 f3 b0 91 c0 24 e5 b9 3f 09 83 06 40
       -2.4055338 -4.5528502 1.4523053 2.1017478
0000b0 59 6d 2a 40 e8 7f 03 c0 1c 24 ec 3f f6 7d 8a 3f
       2.662924 -2.0546818 1.844852 1.081969
0000c0 e0 8a 2c c0 7f 86 9e bf 1b 01 86 c0 a9 48 df bf
       -2.6959763 -1.2384795 -4.187635 -1.7444049
0000d0 1b c1 51 40 37 de fc bc 9a 33 22 40 78 8f de 3f
       3.2774112 -0.030867679 2.5343995 1.7387533
0000e0 b4 38 46 3f 60 7e 4d 40 70 89 08 40 52 4e b3 bf
       0.7743027 3.2108383 2.1333885 -1.4008276
0000f0 1c b8 17 c0 59 09 0a 40 e0 07 44 c0 8b 3a 68 3e
       -2.3706121 2.1568205 -3.0629807 0.22678582
000100 1f 6a 1b bf be 9c 85 3f a9 ae b6 3f a7 31 52 bf
       -0.607088 1.0438459 1.4272052 -0.82107013
000110 c0 85 ad bf 0f 13 06 c0 21 8c 19 be 8d da 49 3f
       -1.3556442 -2.0949132 -0.14994861 0.7884911
000120 af b5 10 c0 34 f9 f8 3d 22 5b b3 bf 93 06 14 bf
       -2.261089 0.12156907 -1.4012187 -0.5782253
000130 fc 07 37 bf 15 b7 e9 bf ff 4a bf bf bb 13 61 3f
       -0.7149656 -1.8258997 -1.4944762 0.8792073
000140 6d 20 2b bf e5 94 f1 3c 9f 3a 39 40 54 4a 9c 3f
       -0.6684635 0.029489944 2.894203 1.2210183
000150 47 f2 4b bf cb 1a 98 bf 9e 27 6b bf ad 3d 06 40
       -0.7966656 -1.1883177 -0.91857326 2.0975144
000160 80 e6 cd 3f 54 7e ea bf 50 20 a6 bf da d4 d7 bf
       1.6085968 -1.8319802 -1.2978611 -1.6861832
000170 ea 5f 2b 3f 81 0e 9c bf 6c 7a 3e 3f ca 1a 12 40
       0.6694323 -1.2191926 0.7440555 2.282885
000180 68 d0 f7 3f 78 50 ce 3f 88 9e 97 3f 7e da 61 bf
       1.9360476 1.6118307 1.1845255 -0.8822402
000190 fd a5 be bf 45 f7 d8 bf 57 2e e7 bf fb 5d 86 3f
       -1.4894406 -1.6950461 -1.8061017 1.049743
0001a0 99 e5 dd 3f d8 ce 33 3e 70 86 dd 3f 2d c4 ca bf
       1.7335693 0.17559373 1.7306652 -1.5841118
0001b0 90 61 e8 3f 7c bd b2 3f c8 0a a2 3f 07 43 d6 3f
       1.8154774 1.3964076 1.265954 1.6739205
0001c0 23 da 81 3f 58 78 ca bf cd 09 06 c0 43 9e a2 bf
       1.0144695 -1.5817976 -2.0943482 -1.2704548
0001d0 39 8d 33 40 e1 5b 92 bf e8 55 dd bf 55 67 42 c0
       2.8054945 -1.1434289 -1.7291842 -3.037557
0001e0 f4 d7 28 bf b9 8e b9 bf 8e b5 b4 bf 3a c0 4a 40
       -0.6595452 -1.449668 -1.4117906 3.1679826
0001f0 f7 b3 c4 3f b5 56 90 be 3e 2a 54 3f 0e 63 b9 bf
       1.5367421 -0.28191152 0.82876956 -1.4483354
000200 b0 06 c1 bf 25 aa db bf 48 38 d1 3f ba 80 0d 40
       -1.5080166 -1.7161299 1.6345301 2.2109818
000210 17 ab d9 bf ca ed fe 3f 0d 9b c1 3f a7 66 9b 3f
       -1.7005337 1.9916317 1.5125443 1.2140702
000220 f9 a4 fb 3f 76 79 78 3f 8b 5d e2 bf af e9 74 bf
       1.9659721 0.97060335 -1.7684797 -0.9566907
000230 9a a5 dd bf 00 07 70 3f 08 b3 ad 3f a6 87 02 c0
       -1.7316163 0.9376068 1.3570261 -2.0395293
000240 61 13 1e c0 5c 0b 5e be 5c b3 1d c0 ff 47 6d be
       -2.4699328 -0.21684021 -2.4640722 -0.23171996
000250 2e b8 ed 3f 56 53 1f 40 d2 38 e4 bf e3 e6 fd 3f
       1.8571832 2.4894614 -1.782984 1.9836086
000260 70 45 5c 3f ab a1 1f c0 c7 ed e5 3f 4a 96 e1 bf
       0.86043453 -2.4942424 1.7963189 -1.762399
000270 09 93 ed 3f 91 10 e5 bf a1 7a af bf 53 80 89 3f
       1.8560497 -1.7895681 -1.3709298 1.0742286
000280 f3 96 d3 3f 03 c4 e4 3f 1a 25 9d 3f cf 5e 97 bf
       1.6530441 1.7872318 1.2276947 -1.1825808
000290 fd 88 a4 bf 6b 53 b4 bf 16 50 02 c0 2b ad 93 3f
       -1.2854306 -1.4087957 -2.036138 1.1537222
0002a0 bb 88 b9 3f f2 17 92 3f 8d 3f a4 3f 78 60 9d bf
       1.4494852 1.1413558 1.2831894 -1.2295065
0002b0 9e 6b c8 bf 70 84 13 c0 85 71 1f c0 d8 c3 11 c0
       -1.5657842 -2.3049583 -2.4913037 -2.2775784
0002c0 cb 9e 39 40 8f f7 fe bf eb 18 35 c0 21 d3 08 40
       2.900317 -1.9919299 -2.8296459 2.1378863
0002d0 52 c6 38 40 1c de 39 3e f2 ff 8c bf ef 50 ea 3e
       2.8871045 0.18151134 -1.1015608 0.45764872
0002e0 ff 6b 16 c0 8b 7c d8 bf a4 9a d8 3f 36 d8 e3 bf
       -2.3503416 -1.6913007 1.6922193 -1.7800357
0002f0 fe be da bf 2a ae f8 3e 89 66 80 3f 82 53 67 c0
       -1.7089536 0.48570377 1.0031291 -3.614472
000300 85 4e 0f 40 6f 7a 2d c0 b3 5b e6 bf 28 ae 75 bf
       2.2391675 -2.7105978 -1.7996734 -0.95968866
000310 6a 9a d7 bf 1d bc 06 c0 7a 03 9d bf 0f 8d 40 3f
       -1.6843998 -2.1052315 -1.2266686 0.7521524
000320 31 6b f7 bf a7 ef 4f bf 7d 97 79 bd 27 61 d3 3f
       -1.9329587 -0.81225055 -0.060935486 1.6514024
000330 ab 6e 0e c0 3c 4a 33 3f 22 b4 ea bf 8a 1c a8 bf
       -2.2255046 0.7003515 -1.8336222 -1.313371
000340 8d 78 4b c0 fc c2 f8 bf 0a e7 22 bf 53 4a 1d 40
       -3.1792328 -1.9434505 -0.6363379 2.4576614
000350 cb f7 fe bf 10 b0 ec bf 17 d9 b0 bf b5 1a d8 bf
       -1.991937 -1.849123 -1.381625 -1.688315
000360 53 a1 f3 3f 11 93 88 3f 05 43 1a 40 96 fe ef 3f
       1.9033607 1.0669881 2.4103405 1.8749568
000370 13 51 00 c0 6a db eb 3f 23 98 a6 be 8b 2c 00 c0
       -2.0049484 1.8426335 -0.32537946 -2.0027187
000380 ab c6 9e bf 35 8d b1 3f 7f 58 fe 3f 71 63 07 bf
       -1.2404379 1.3871218 1.9870757 -0.5288611
000390 f3 75 a9 3f 8b 91 05 40 e8 ed 02 c0 10 0b cf bf
       1.323912 2.0870082 -2.0457706 -1.6175251
0003a0 0f d3 e7 bf 74 77 b8 3f ab b4 73 bf 9c 86 bb bf
       -1.8111285 1.4411454 -0.9519755 -1.4650455
0003b0 36 3e a6 3f 97 20 bf bf ec 89 09 40 99 ed c2 3f
       1.2987735 -1.4931821 2.149043 1.5228759
0003c0 79 23 a3 bf 3b 27 93 bf 08 e5 1f c0 c6 2b a0 bf
       -1.27452 -1.1496347 -2.498354 -1.2513359
0003d0 3d 2e ae bf b6 c1 e1 be 7a 09 80 3f 28 76 1d 40
       -1.3607861 -0.44093102 1.0002892 2.4603367
0003e0 c2 2a 8e bf 0e 62 ed bf d7 f5 13 40 32 7b a0 bf
       -1.1106799 -1.8545549 2.3118799 -1.2537596
0003f0 38 3f 8e 3f 1a ad d3 3f 81 d5 b6 3f d8 a4 ca bf
       1.1113043 1.6537201 1.4283906 -1.5831556

arith.constant1 f4 [28]
000000 28 c0 35 41 de 9d 38 41 1d 50 01 41 b1 1a d7 c0
       11.359413 11.538542 8.082059 -6.722008
000010 3f 03 37 40 d6 0d 7f bf a7 d2 1c 41 cb 2f 8b c0
       2.8595731 -0.99630487 9.801429 -4.349584
000020 82 ad 48 40 d3 68 51 40 9f 58 19 41 dc dc c4 3c
       3.13559 3.272023 9.584136 0.024031095
000030 de 4a 50 3f 10 a3 1d 40 4f db 1a 41 01 95 10 41
       0.8136424 2.4630775 9.678542 9.036378
000040 da 5d e0 c0 9a fd 38 41 19 f3 8f 3f c5 bf 30 c0
       -7.0114565 11.561914 1.1246063 -2.7617047
000050 94 72 14 41 df f8 e1 3f 3f f2 f2 40 32 65 20 41
       9.277973 1.7654074 7.592071 10.024706
000060 ad b1 08 41 20 84 d3 c0 7a 01 87 41 43 11 87 c0
       8.543378 -6.6098785 16.875721 -4.220857

arith.constant2 f4 [32, 64]
000000 5a 6c 3c bd d9 08 82 be 74 94 a8 3d 49 40 11 be
       -0.04600177 -0.25397375 0.0823144 -0.14184679
000010 cc ba c8 3d 6c 51 88 3d 60 6d c4 be ea 1d f0 3d
       0.09801254 0.06656155 -0.38364697 0.11724456
000020 da 3a ac bc e4 a2 5e be 7d c3 15 be 37 c3 c1 be
       -0.021024156 -0.21741825 -0.14625354 -0.3784425
000030 2a f5 ff 3d b1 8d 8b bd ea 92 82 3d 5e 02 4f 3e
       0.12497933 -0.06814135 0.06375678 0.20215747
000040 d1 ba ad 3e 45 f3 67 bd 0b c4 f4 3d 40 71 2a 3e
       0.33931592 -0.056628484 0.11951455 0.16644764
000050 a8 d3 fc 3c 9f 9f ae bd 7d e3 8f 3e 10 72 96 be
       0.030862644 -0.08526539 0.28103247 -0.29383898
000060 c7 2d 73 bd e7 d0 0d be 06 fe d0 3d f0 5b 3b be
       -0.05936983 -0.13849221 0.10204701 -0.1829679
000070 40 f4 bd 3d d8 73 0d be 28 48 32 3f 2c bd aa 3d
       0.092751026 -0.13813722 0.6964135 0.08336863
000080 52 da f3 3d 8e d8 5d 3e a3 8c 96 bb c6 32 50 3e
       0.11906876 0.2166464 -0.004594402 0.20331869
000090 45 ca 27 3f 77 81 e3 3e e8 26 64 3f 24 85 c3 3c
       0.65543014 0.4443471 0.89121866 0.023867197
0000a0 20 53 b0 3d 42 fb c8 3c 8c 09 fc 3e 41 7d b8 3d
       0.08609605 0.024533872 0.49226034 0.09008265
0000b0 2f 49 9f be 12 50 3e 3d 6f 3b 27 be 2c f5 3e be
       -0.31110522 0.04646308 -0.16331266 -0.18648213
0000c0 69 90 89 be b5 66 0d 3d 69 17 2a 3d c1 97 b3 3e
       -0.2686799 0.034521777 0.041526232 0.35076717
0000d0 71 25 8d 3d a3 6c 04 3e de d5 13 bf f9 9f ae b6
       0.06891907 0.12932067 -0.5774821 -5.2042274e-06
0000e0 2f 22 52 3e e2 1c 89 be 08 1d 77 3d ff 58 96 be
       0.20520853 -0.26779848 0.06033042 -0.29364774
0000f0 4b f0 5b bf 7a d0 a4 be e4 ce 02 bf e1 16 1d 3f
       -0.8591353 -0.32190305 -0.5109694 0.61363035
000100 22 fd cc 3d 4e 19 86 bd 2a ac 5c be fa 8e 49 be
       0.10009219 -0.06547795 -0.2155005 -0.19683447
000110 df 48 40 bc 1b a4 4d bd 26 f0 c3 bd 69 c0 87 be
       -0.011736124 -0.05020533 -0.09567289 -0.26513985
000120 ad f4 fa bc 7e e7 49 3e f6 a5 1d 3e e0 33 26 3d
       -0.030634249 0.19717214 0.1539534 0.040576816
000130 b8 14 40 bd 49 78 33 3f ad 04 11 be 73 89 e6 3d
       -0.04689476 0.70105416 -0.1416194 0.11256685
000140 e4 36 d0 3d b9 a4 67 3f 54 f6 64 be 1e 8e 8e bd
       0.101667196 0.9048572 -0.22359592 -0.069607005
000150 3d 46 8d be 1f 43 04 bf 19 79 96 bc f7 1f 84 be
       -0.2759265 -0.5166492 -0.01836829 -0.25805637
000160 5e c0 12 3e f8 7a c5 bd e8 9d b4 3e 86 21 76 be
       0.14331195 -0.09642595 0.35276723 -0.24036226
000170 7e 00 e5 3e 0e ad 7e bd a3 ef 1b be 7c 4f 3a 3e
       0.44726938 -0.062176757 -0.15228133 0.18194383
000180 fb 49 47 bc 83 13 0f be df a0 36 bd 45 f7 2f bc
       -0.012163634 -0.13972287 -0.044587012 -0.010740106
000190 3a 47 40 be 85 b3 d8 bd a8 41 c5 bd 63 f0 8e 3d
       -0.18777171 -0.10581116 -0.096316636 0.06979444
0001a0 d5 bc 7e 3e 04 f8 ad 3d b1 5d cc 3d d3 c0 a2 bd
       0.24876721 0.08494571 0.09978808 -0.079469346
0001b0 07 19 4e be 80 56 09 3d 41 9f 86 3f 16 79 ed bd
       -0.20126735 0.03352976 1.051735 -0.11595361
0001c0 f2 05 80 bd 9b 9e 65 3d 7a ad c1 3d 6d 10 eb 3d
       -0.06251134 0.05605946 0.09456916 0.11477742
0001d0 ec 4d 0b bd 3c dd 83 bd 8f 80 c4 be d5 b1 b1 b7
       -0.03400986 -0.064386815 -0.38379332 -2.1182854e-05
0001e0 20 ee aa be 8e 30 90 be 19 bd 09 3f 61 a4 01 be
       -0.333848 -0.28162044 0.53804165 -0.12660362
0001f0 d7 02 0e bf b8 bb e6 3e 69 f7 9e 3d d6 f0 ed bd
       -0.55473083 0.45065093 0.077620335 -0.116182014
000200 68 78 5c bf 95 1f 55 bd f6 13 b1 bd 7a 66 86 3d
       -0.86121225 -0.052032072 -0.08646385 0.065625146
000210 cb d0 18 3e f0 bf 85 3d 7f a8 2e 3a a4 19 36 3e
       0.14923398 0.0653075 0.0006662681 0.17783219
000220 56 3c 60 bd 37 16 da bd f1 ca 85 3e fc 6a 4e bc
       -0.05474504 -0.106487684 0.26131395 -0.012598749
000230 9b b3 f3 bd 9c d0 17 bd cd fc 8d be 43 54 39 3f
       -0.118994914 -0.03706418 -0.27731934 0.723942
000240 d1 ca 0c 3e 6f c5 2a 3d 00 19 99 3d a8 86 82 bc
       0.13749243 0.041692194 0.074754715 -0.01593335
000250 b7 39 a2 be f8 97 19 bf 62 1f a4 bd 35 f9 1f 3c
       -0.31684658 -0.5999751 -0.08013798 0.009764005
000260 eb a9 c0 bd 32 6c c4 be c9 f6 4b bd 10 ba b9 3e
       -0.09407409 -0.38363796 -0.0497959 0.36274767
000270 dc 68 a4 bc 1f 8d 18 3e 88 a1 98 3e ba 7f f5 3e
       -0.020069532 0.14897583 0.2981074 0.4794901
000280 e1 92 50 be d7 25 0a 3d df 99 16 be b3 ed 33 be
       -0.2036853 0.033727493 -0.14707135 -0.17571144
000290 07 3a 25 3d d3 17 1d bf 5e 9c 5e 3e 25 b8 12 bf
       0.040338542 -0.6136448 0.21739337 -0.5731223
0002a0 30 16 90 be fb 82 c7 be 5f 05 e2 be 0b 67 82 3c
       -0.28141928 -0.38967118 -0.44144723 0.015918275
0002b0 7f 7a a2 bf 5f 41 fe bd 80 f0 62 3e da 3b f3 3d
       -1.2693633 -0.12414812 0.22162056 0.1187665
0002c0 75 29 24 be 37 3b 9f 3c ca d5 4f bd e5 d3 ac 3b
       -0.1603144 0.019437416 -0.050740995 0.0052742832
0002d0 e8 48 60 3d a9 04 9d 3e 68 c1 c2 be 69 72 0d 39
       0.05475703 0.30667618 -0.38038182 0.00013489429
0002e0 cc c3 20 3e 56 d3 01 bf 14 79 11 bd f6 a9 49 bf
       0.1569969 -0.507131 -0.03551586 -0.78774965
0002f0 2d 7d e8 bd 26 76 3f bf 07 2c b4 3d 99 50 6c 3d
       -0.113520004 -0.74789655 0.0879746 0.05769405
000300 01 33 85 3e 0b 33 e4 3d 05 4f 72 3e e2 e7 98 bd
       0.26015475 0.11142548 0.23662956 -0.07466103
000310 ca 59 6a bf b1 0c 5a 3d cb 32 41 3e 3c 33 46 3e
       -0.9154326 0.05323476 0.18867032 0.19355482
000320 ac 13 82 3c 31 62 80 bd f4 2f cc 3e 6f 1d 39 3d
       0.01587852 -0.062687285 0.39880335 0.045194086
000330 93 19 5f 3d 6a b0 03 3e b1 2c cf bd 80 e7 b7 3e
       0.05446775 0.12860265 -0.10115946 0.35918808
000340 cc 27 80 3f 77 3a 87 bd 03 41 4b be 70 24 73 3e
       1.0012145 -0.06602948 -0.19849019 0.23744369
000350 ff b8 14 be af 7c 88 3e 5a 20 22 bf 7b 6d 81 bb
       -0.14523695 0.26657626 -0.63330615 -0.0039498187
000360 34 97 cb 3c b9 7f d0 3d 4a 21 48 be 01 3c de 3d
       0.024852373 0.10180611 -0.19543949 0.108512886
000370 0c 4d cd bd 72 5c 9f 3d a0 a7 9c bc 27 46 00 bf
       -0.10024461 0.077813044 -0.019122899 -0.50107044
000380 90 b9 8e bc ce 6a 97 3d c3 d2 22 3d 0f e7 3f be
       -0.017422467 0.07393418 0.03975178 -0.18740486
000390 54 1f 28 3f 79 19 ed 3d 6e b4 d7 bd 34 72 01 3e
       0.656728 0.11577124 -0.10532461 0.12641221
0003a0 a4 a6 3f bd 96 52 13 be 6d 0d 6f bf bb ad 01 bf
       -0.04678978 -0.14386973 -0.9337986 -0.50655717
0003b0 c9 ed 5b be b9 49 0e be 4d fd 96 be f8 c7 4c 3e
       -0.21477427 -0.1389531 -0.29490128 0.19998157
0003c0 44 a6 60 be c6 04 14 3e d8 30 02 be 34 75 4b bf
       -0.21938425 0.14454946 -0.12713945 -0.7947571
0003d0 a0 b5 3b 3d c7 68 c7 3e 1f 31 b3 3d 12 35 07 b8
       0.045827508 0.38947126 0.087496035 -3.2235934e-05
0003e0 1f bf fb 3d da 81 c8 bd e7 3a 1b bf c7 cd 96 be
       0.12292313 -0.09790392 -0.6063675 -0.2945387
0003f0 79 99 4a 3e c5 71 de bb 6e dc 19 3e da 6d 71 3e
       0.19785108 -0.0067884647 0.15025494 0.23577061

arith.constant3 f4 [32]
000000 e1 46 c1 3f ae c7 05 40 ee 04 8e 3f 34 1d 21 3f
       1.5099756 2.0903125 1.1095254 0.62935185
000010 14 02 95 3f 66 63 78 3e 03 4c 70 3f 51 81 54 3f
       1.1641259 0.24256667 0.93865985 0.8300982
000020 3c e4 cd 3e f4 79 f4 3e fe 65 f1 3f e9 8b 6c be
       0.40213192 0.47749293 1.885925 -0.23100246
000030 fe 42 24 3f a6 cf 4e 3f a6 03 bf 3e 95 a1 b7 3f
       0.6416472 0.80785596 0.3730747 1.4346186
000040 0e b2 31 3e f4 32 1d 3f ef e4 f3 3e 93 5f 81 3e
       0.17353079 0.61405873 0.476356 0.2526823
000050 53 51 26 3e fd be c8 3f f2 e2 13 3f 45 1b 14 3f
       0.1624196 1.5683285 0.57768166 0.5785411
000060 b5 ab 7c 3f d7 e6 e6 3e 72 3a c5 3f 1a 62 ca 3e
       0.98699504 0.45097992 1.5408461 0.3952797
000070 6b 11 a5 3f b5 c4 0f 3f 84 c5 04 40 b0 87 fa 3e
       1.289594 0.56159526 2.0745554 0.48931646

arith.constant4 f4 [64]
000000 25 c5 b5 3c 1d 00 ef bc 74 dd dd 3c e6 70 07 be
       0.022188732 -0.029174859 0.027083136 -0.13226661
000010 e1 a1 74 be d3 00 ea be 84 1b ec bd 70 48 07 3e
       -0.23889877 -0.45703754 -0.11528686 0.13211226
000020 0c e3 0b bf d8 b6 b1 be da b5 35 bf 68 33 03 be
       -0.5464332 -0.3470981 -0.7098061 -0.12812579
000030 a1 1b 2f bf cc bb 88 bf 30 69 20 be 80 ee a1 bc
       -0.68401533 -1.0682311 -0.15665126 -0.019767046
000040 7d c7 40 be 3a f9 b3 bd 95 95 e0 be 47 47 47 bd
       -0.18826099 -0.087877706 -0.43864122 -0.04865196
000050 74 16 43 be e5 9d b6 3c f2 dd 13 bf a5 60 bc 3d
       -0.19051534 0.022292087 -0.57760537 0.09198121
000060 3b 91 32 be a5 cf 58 3e 6a ec 29 bf a9 41 da bd
       -0.17438214 0.2117296 -0.66376364 -0.10657055
000070 1e f9 6b be 1f c0 3e bf 50 99 34 bf 7d 58 0c be
       -0.2304425 -0.74511904 -0.70546436 -0.1370563
000080 61 89 a1 bd 96 e2 25 be b8 5c f7 bd 1d 9e 76 bc
       -0.07887531 -0.16199717 -0.120782316 -0.015052346
000090 94 1f a8 be 26 ab 3a be 92 e3 af be d0 4e dd bf
       -0.32836592 -0.1822935 -0.3435331 -1.7289677
0000a0 50 7c 69 bf 6f 04 04 bd bc 70 f3 be df dc 6c 3a
       -0.9120531 -0.03223079 -0.47546947 0.0009035598
0000b0 ee eb 3e bf f9 05 91 bf d9 eb 48 be 61 8b 6b bc
       -0.7457875 -1.1329948 -0.19621219 -0.014376492
0000c0 e8 fc 23 be b4 f7 94 bd ea 06 3c bf 60 d2 0f bd
       -0.16014445 -0.07273808 -0.7344805 -0.03511274
0000d0 52 13 44 bf a0 7c 9d be 23 0f 94 be 7b 33 dc bf
       -0.7659198 -0.30759144 -0.28917798 -1.720321
0000e0 75 37 af be eb 94 a3 be ef 47 b4 bd 1c bd 01 be
       -0.34221998 -0.31949553 -0.08802783 -0.12669796
0000f0 ec 3f 12 bd 46 74 1a bf d3 5a 2a 3e 98 34 a4 bf
       -0.035705492 -0.6033367 0.16636209 -1.282855

sequential_4_1/dense_12_1/MatMul f4 [64, 126]
000000 d7 10 34 3d 07 47 3f 3d 3c 18 8c bc 1f 96 a2 3c
       0.043961372 0.046698596 -0.0171014 0.019846974
000010 56 67 ee bc d3 4a 2b 3d b4 f2 67 bc 13 e7 e0 3c
       -0.029102009 0.041819405 -0.014156986 0.027453935
000020 50 cc a2 bc 9d 16 44 bd 2f 07 42 3d 8b be de bc
       -0.019872814 -0.04787313 0.047370132 -0.027190467
000030 5d 2b 97 bd b9 6e d6 3d 18 8e 0e bc 4a 38 92 3b
       -0.07381318 0.104703374 -0.00870087 0.0044622766
000040 d6 44 f2 bd 1c c8 18 3d 11 0f 14 3c dc 4b 37 bd
       -0.11829536 0.037300214 0.009036795 -0.04475008
000050 21 1d a2 3c f2 35 4b 3d f3 ca ee 3c 3c 4c ac 3b
       0.01978928 0.049611993 0.029149508 0.0052581113
000060 a4 9a e0 3d 97 e1 75 3d 37 8a a3 bc 77 1b ac 3c
       0.10966995 0.060029592 -0.019963367 0.02100919
000070 9c 3d 38 bd 64 4a 4b bc 35 f3 5a bb 04 a6 9b bc
       -0.04498063 -0.012407873 -0.0033409123 -0.01900006
000080 b6 cc 71 3c b4 27 c3 3b a2 c1 25 bd 12 6f 63 3d
       0.01475828 0.0059556607 -0.040467866 0.055525847
000090 e4 99 a6 3d 7d 00 00 be e0 3f 5d 3d 19 69 c7 3c
       0.08134821 -0.12500186 0.054015994 0.024342107
0000a0 22 27 0d 3c e9 62 83 bd d0 a2 7a bc c4 79 53 bc
       0.008615287 -0.0641535 -0.015297607 -0.012907449
0000b0 29 f0 d9 bd c1 2d 9f bc 17 b8 bd 3c fa ba 0c bc
       -0.1064151 -0.019430997 0.02315907 -0.008589501
0000c0 e4 be 03 3d 65 94 90 bc af bb 92 3d b9 b4 b7 3c
       0.03216447 -0.017648885 0.07164704 0.022425042
0000d0 ad 63 03 3d ef a4 bd bd 1c e4 10 bd c8 88 e4 bb
       0.03207748 -0.09259974 -0.035373792 -0.0069743134
0000e0 86 53 d7 bd 1b b4 8c bd 73 64 20 3d 50 13 5f bb
       -0.10513978 -0.0687029 0.039158296 -0.003403861
0000f0 ee 39 62 bd b5 b1 7d 3d b3 6d ac 3d 1e 47 b3 3c
       -0.055231027 0.061937053 0.08419361 0.021884497
000100 73 48 26 3d ff fe 20 3d 2a 62 0c 3d 00 6f 02 3d
       0.040596437 0.039305683 0.034273304 0.03184414
000110 b8 b4 82 3d 4d d5 12 3c 0d 58 04 3d fe 4c 29 3c
       0.063821256 0.008961988 0.032310534 0.010333298
000120 e9 79 23 bd f7 27 27 3d 3e 13 f8 bc c2 02 a9 bd
       -0.039911184 0.040809598 -0.030282613 -0.08252479
000130 91 2a 51 3d f0 3e 2e bd 50 13 75 3d ca 38 8a bd
       0.051065985 -0.04254049 0.05983287 -0.06749113
000140 fa 6d dd 3d 72 41 94 3d 57 71 0e bd e5 06 5c 3d
       0.10811992 0.07239045 -0.034776058 0.053717513
000150 f8 48 b9 3d c4 e1 81 bc ca da b6 3c 73 63 e5 3d
       0.09047121 -0.015854724 0.022321124 0.11200609
000160 a1 18 6d bc d7 69 11 bc 16 75 10 3d 91 17 80 bd
       -0.014471204 -0.008875332 0.03526791 -0.06254495
000170 98 a5 8b 3d bb 88 08 3c 11 f8 a7 3b 59 4c 98 bc
       0.06818694 0.00833338 0.0051260074 -0.018591093
000180 32 3b 30 3b 50 07 7c bc 37 0d c0 bb e9 d4 18 3d
       0.0026890752 -0.015382603 -0.0058609503 0.037312422
000190 b9 6f 89 bd 38 85 99 3c ac c2 d6 b9 27 0b 0f bd
       -0.067107625 0.018740281 -0.00040962303 -0.034922745
0001a0 53 14 93 3b ed c9 0a bd 08 ec df 3c 22 73 d8 bd
       0.004488507 -0.033883978 0.027334228 -0.10568835
0001b0 25 fa 23 bd 0b a4 2c 3c 30 ea a0 bc 97 aa 94 bc
       -0.04003348 0.010537158 -0.01964292 -0.01814775
0001c0 c6 1a e2 bc 9b f3 98 3d 12 0a 17 bd d5 1b a1 3a
       -0.027600657 0.07468339 -0.03687484 0.001229162
0001d0 41 ac 7b bd a4 7d 5d bd 17 fc 45 3d d1 ff e4 bd
       -0.06144357 -0.0540749 0.048336115 -0.111816056
0001e0 9f 0e 66 bd c1 95 22 3d 0b 10 02 bd fb 4e 2d bd
       -0.056166288 0.039693598 -0.03175358 -0.04231165
0001f0 94 b8 6f 3c 99 f8 64 3d 15 3d 95 3c f2 71 15 bd
       0.014631409 0.055901144 0.018217603 -0.03648562
000200 dc a4 66 3d d2 c6 8a bb 04 6f b2 bd ac 21 bd 3c
       0.056309566 -0.004235127 -0.08712581 0.023087345
000210 9b 65 bb bc 9e 70 4d bd 7c e6 e5 b8 5b 45 a1 bc
       -0.022875598 -0.05015623 -0.00010962502 -0.019686392
000220 5d 79 1e 3c 26 60 8a bc a4 2f 32 bc 14 fc c5 3d
       0.00967249 -0.01689155 -0.010875616 0.09667221
000230 d2 09 7f bc 49 46 4d bd 94 ae 4c 3d 14 5b 80 3d
       -0.015566306 -0.050115857 0.04997118 0.06267372
000240 02 c1 36 bd be f6 32 3d 86 a0 ce 3c 7c 94 83 bd
       -0.04461766 0.043692343 0.025223028 -0.064248055
000250 c1 7b 9a bc aa 66 6c 39 da 55 16 bd a6 49 9f bd
       -0.018857839 0.00022544959 -0.03670297 -0.07777719
000260 ad 45 c7 bc 8d d7 08 bd 0f c8 06 3d e9 b9 9c 3c
       -0.024325216 -0.03340869 0.032905634 0.019131618
000270 4f 6b 26 3d 0e a2 47 bd 8e 95 c7 3b 24 7e 4f 3d
       0.04062968 -0.04873853 0.0060908264 0.050657406
000280 17 82 73 bd 0c cf e7 bb 2e 44 df 3d 81 0f 35 bd
       -0.059450235 -0.0070742425 0.10901676 -0.04420424
000290 a2 5d 10 bd 5b 92 85 bb 1e cc 0b bb ea e2 dc bc
       -0.035245545 -0.004076285 -0.002133138 -0.02696367
0002a0 17 d1 33 3c a1 01 4f bd 36 31 26 bd de b0 d1 bc
       0.010975144 -0.050538663 -0.040574275 -0.025597032
0002b0 a3 6c a8 3c 63 7e 95 3c 01 d2 87 3c 55 6a d9 3d
       0.020559615 0.018248742 0.01657963 0.10615984
0002c0 39 cc 7e 3d 87 33 0d 3d 1b ef 36 bd 60 11 91 bd
       0.06220648 0.03447297 -0.044661622 -0.07083392
0002d0 6e 22 eb 3c 98 9a 93 bd d9 d9 17 bd 81 3d d8 3b
       0.02870294 -0.07207221 -0.03707299 0.0065991287
0002e0 12 15 1a bd 62 f5 c4 3c 1b 04 72 3d d7 eb 04 3b
       -0.03761775 0.024042789 0.059085947 0.0020282173
0002f0 b8 7a 83 3d d0 2d 93 3d 7e 3b 04 3d 86 5b 2b 3e
       0.06419891 0.071864724 0.0322833 0.16734132
000300 4a b4 bc 3c b2 b2 1e 3d ec 33 4b 3d c9 ab bf bb
       0.023035187 0.038744636 0.049610063 -0.005849336
000310 8c 20 d9 3c 41 f7 ed 3c 3d eb 71 bc 10 11 93 3c
       0.026504777 0.029048564 -0.014765558 0.017952472
000320 d4 a6 db 3c 71 f0 15 bd ff 88 cb 3c be ff e3 3c
       0.026812948 -0.036606256 0.024845598 0.027831908
000330 0b 30 7d bc 4e e0 95 3c f6 b9 4a bd 3b 98 1c bd
       -0.015453349 0.018295433 -0.049493752 -0.038231116
000340 de db f5 bc 47 b3 8b bc 6c a3 44 bd c6 fe 3f bd
       -0.030012067 -0.01705326 -0.048007414 -0.04687383
000350 7f dd 97 3b ef 8a 2d bd 4b 73 75 bd 90 41 85 3c
       0.0046345587 -0.042368826 -0.059924405 0.016266614
000360 e7 88 8c 3c 8d 04 2f bb 75 1c 6c bd c1 de c4 3b
       0.017155124 -0.0026705593 -0.057644326 0.0060079996
000370 c4 09 8f bd ba 39 09 bd 2c 07 e3 3a 57 c5 6b bd
       -0.069842845 -0.033502318 0.0017320863 -0.057561245
000380 ba 91 b9 bc a4 c5 72 3b ed 8a 0e bd d7 d5 84 bc
       -0.022652496 0.0037044073 -0.03480046 -0.016215248
000390 63 18 4d 3d 0e 81 4b bc 7e f2 31 bd d3 51 a1 3c
       0.050072085 -0.012420906 -0.04344415 0.019692337
0003a0 0e 7d f4 bc da 15 d4 bc 26 c2 cc bc 45 b5 d2 3b
       -0.029844787 -0.025889326 -0.024994921 0.0064303004
0003b0 70 fe 08 3d c9 18 67 bd 98 0d 28 3d 3e 7d aa 3d
       0.033445776 -0.05642012 0.04102859 0.08324669
0003c0 62 8c a8 3d 40 50 dd bb 4d 5c ce bc 9b 79 58 3d
       0.08229901 -0.0067539513 -0.025190497 0.052850347
0003d0 bc ea 94 ba a8 7c 94 bc 44 2e 92 3c cd 46 de 3c
       -0.001136146 -0.018125847 0.017844327 0.02713337
0003e0 87 6c ad 3c 02 d6 27 bb 8b f7 56 3d 01 8e 76 3d
       0.021169914 -0.0025609736 0.05248217 0.06019402
0003f0 26 f8 69 3d 39 c0 18 bd 3b 25 93 bd 9e 38 49 3d
       0.05712142 -0.037292693 -0.071848355 0.04912626
